…
./3D_OS_release_data/modelnet40_normal_resampled/ood_sets_cache/SR2_test.h5\n","ModelNet40_OOD - split: test, categories: {'bed': 0, 'toilet': 1, 'desk': 2, 'monitor': 3, 'table': 2}\n","SR2 train synset: {'bed': 0, 'toilet': 1, 'desk': 2, 'monitor': 3, 'table': 2}\n","Source: SR2\n","Num training classes: 4\n","Clf - feature encoder: pn2-msg\n","Clf Head - num classes: 4, input dim: 1024, act: relu, dropout: 0.5\n","Model: \n","Classifier(\n","  (enco): Pointnet2_MSG_Y(\n","    (sa1): PointNetSetAbstractionMsg(\n","      (conv_blocks): ModuleList(\n","        (0): ModuleList(\n","          (0): Conv2d(3, 32, kernel_size=(1, 1), stride=(1, 1))\n","          (1): Conv2d(32, 32, kernel_size=(1, 1), stride=(1, 1))\n","          (2): Conv2d(32, 64, kernel_size=(1, 1), stride=(1, 1))\n","        )\n","        (1): ModuleList(\n","          (0): Conv2d(3, 64, kernel_size=(1, 1), stride=(1, 1))\n","          (1): Conv2d(64, 64, kernel_size=(1, 1), stride=(1, 1))\n","          (2): Conv2d(64, 128, kernel_size=(1, 1), stride=(1, 1))\n","        )\n","        (2): ModuleList(\n","          (0): Conv2d(3, 64, kernel_size=(1, 1), stride=(1, 1))\n","          (1): Conv2d(64, 96, kernel_size=(1, 1), stride=(1, 1))\n","          (2): Conv2d(96, 128, kernel_size=(1, 1), stride=(1, 1))\n","        )\n","      )\n","      (bn_blocks): ModuleList(\n","        (0): ModuleList(\n","          (0-1): 2 x BatchNorm2d(32, eps=1e-05, momentum=0.1, affine=True, track_running_stats=True)\n","          (2): BatchNorm2d(64, eps=1e-05, momentum=0.1, affine=True, track_running_stats=True)\n","        )\n","        (1): ModuleList(\n","          (0-1): 2 x BatchNorm2d(64, eps=1e-05, momentum=0.1, affine=True, track_running_stats=True)\n","          (2): BatchNorm2d(128, eps=1e-05, momentum=0.1, affine=True, track_running_stats=True)\n","        )\n","        (2): ModuleList(\n","          (0): BatchNorm2d(64, eps=1e-05, momentum=0.1, affine=True, track_running_stats=True)\n","          (1): BatchNorm2d(96, eps=1e-05, momentum=0.1, affine=True, track_running_stats=True)\n","          (2): BatchNorm2d(128, eps=1e-05, momentum=0.1, affine=True, track_running_stats=True)\n","        )\n","      )\n","    )\n","    (sa2): PointNetSetAbstractionMsg(\n","      (conv_blocks): ModuleList(\n","        (0): ModuleList(\n","          (0): Conv2d(323, 64, kernel_size=(1, 1), stride=(1, 1))\n","          (1): Conv2d(64, 64, kernel_size=(1, 1), stride=(1, 1))\n","          (2): Conv2d(64, 128, kernel_size=(1, 1), stride=(1, 1))\n","        )\n","        (1-2): 2 x ModuleList(\n","          (0): Conv2d(323, 128, kernel_size=(1, 1), stride=(1, 1))\n","          (1): Conv2d(128, 128, kernel_size=(1, 1), stride=(1, 1))\n","          (2): Conv2d(128, 256, kernel_size=(1, 1), stride=(1, 1))\n","        )\n","      )\n","      (bn_blocks): ModuleList(\n","        (0): ModuleList(\n","          (0-1): 2 x BatchNorm2d(64, eps=1e-05, momentum=0.1, affine=True, track_running_stats=True)\n","          (2): BatchNorm2d(128, eps=1e-05, momentum=0.1, affine=True, track_running_stats=True)\n","        )\n","        (1-2): 2 x ModuleList(\n","          (0-1): 2 x BatchNorm2d(128, eps=1e-05, momentum=0.1, affine=True, track_running_stats=True)\n","          (2): BatchNorm2d(256, eps=1e-05, momentum=0.1, affine=True, track_running_stats=True)\n","        )\n","      )\n","    )\n","    (sa3): PointNetSetAbstraction(\n","      (mlp_convs): ModuleList(\n","        (0): Conv2d(643, 256, kernel_size=(1, 1), stride=(1, 1))\n","        (1): Conv2d(256, 512, kernel_size=(1, 1), stride=(1, 1))\n","        (2): Conv2d(512, 1024, kernel_size=(1, 1), stride=(1, 1))\n","      )\n","      (mlp_bns): ModuleList(\n","        (0): BatchNorm2d(256, eps=1e-05, momentum=0.1, affine=True, track_running_stats=True)\n","        (1): BatchNorm2d(512, eps=1e-05, momentum=0.1, affine=True, track_running_stats=True)\n","        (2): BatchNorm2d(1024, eps=1e-05, momentum=0.1, affine=True, track_running_stats=True)\n","      )\n","    )\n","  )\n","  (penultimate): Sequential(\n","    (0): Linear(in_features=1024, out_features=512, bias=False)\n","    (1): BatchNorm1d(512, eps=1e-05, momentum=0.1, affine=True, track_running_stats=True)\n","    (2): ReLU()\n","    (3): Dropout(p=0.5, inplace=False)\n","    (4): Linear(in_features=512, out_features=256, bias=False)\n","  )\n","  (head): Sequential(\n","    (0): BatchNorm1d(256, eps=1e-05, momentum=0.1, affine=True, track_running_stats=True)\n","    (1): ReLU()\n","    (2): Dropout(p=0.5, inplace=False)\n","    (3): Linear(in_features=256, out_features=4, bias=True)\n","  )\n",")\n","\n","param count: \n","1.7373 M\n","Loss: CE\n","\n","it: [10/59-1/250], rank: [1/1], Loss: 0.7324, Loss avg: 0.9719, lr: 0.001000, BT: 0.32, DT: 0.00\n","it: [20/59-1/250], rank: [1/1], Loss: 0.2799, Loss avg: 0.7465, lr: 0.001000, BT: 0.32, DT: 0.00\n","it: [30/59-1/250], rank: [1/1], Loss: 0.2764, Loss avg: 0.6214, lr: 0.001000, BT: 
…
